HW4/softmax_best_model.pt (torch, 247059 bytes, 1 tensors)

W f8 [3073, 10]
0.012660508329076108 -0.009682576164846966 -0.00989114868228326 -0.01697667570352948 -0.05297834722112563 -0.015156041037097725 0.024251552197296005 -0.0033780605880604484
0.07984634346918563 -0.008696735654014931 -0.009175090924364065 -0.008572291848376757 0.023445510178244203 0.0014424825459022086 -0.0017628317446675564 -0.04216793730460141
0.03790265873205711 -0.03238274809511868 0.0633725562936391 -0.03210358529288663 -0.022671996727655495 0.0027994107717759127 0.03869975852569257 0.002873925796921682
0.01761943865640857 -0.03306657092071005 0.025669699050168325 -0.022470299198953752 0.04499421368330992 -0.054446684326928056 -0.00978498620273189 -0.000876462055204237
0.022035428717939516 -0.0057506544766640294 0.01776457491267292 0.0037992047976673597 0.0029505858090512387 -0.025968560175173187 0.051639856364532666 -0.055812500320736265
0.006486906337775611 0.013614277078023908 0.00494652111872155 -0.013707664803342496 0.03528193354413606 0.015703847045918744 -0.0136137093453095 -0.03205098058838634
0.03836313621776513 -0.055022753275284095 0.009704462310046071 -0.008872032159024344 0.015348591325265152 -0.014532055498007733 0.013301334711527692 0.004653050463841967
0.004364346427177238 0.013063687673800058 0.029894435281846488 -0.06692738492194068 -0.0020255872511076543 -0.0060849313220390205 0.0230224089155812 -0.002723580359005449
0.005533727119233183 0.01275542138737218 0.0018865523740371742 -0.0018261465739226306 0.028577633301018084 -0.05911750916703342 -0.013865035357092022 -0.003269943199100579
0.026635576060515302 0.03255296956197688 0.006253157242578378 -0.0007034971957011497 0.004189775351328141 -0.034468043306395205 0.03723839281025803 -0.05456336324684733
-0.01714985240394069 0.011409462158617446 0.0038610851618453776 0.018439728038469754 0.021380149785828802 -0.029079695785916262 0.04929909975581726 -0.047321973439108565
0.0226676380983941 -0.03349957144176763 -0.022986108290013175 0.01838034135392554 -0.00019551660530088742 0.013913140861007199 0.03647795695611949 -0.0012640237398275631
0.030685935820387762 -0.0410490990389365 0.012805790010223469 -0.046769705917650735 -0.020252777292486736 -0.004334046586917145 -0.0007688231170470217 0.011597645989786614
0.0329224795180808 0.023362850365524355 0.019664528348331448 -0.041191352558867855 0.0189994753088523 -0.03999851027369745 -0.002560880982906196 0.0007494895819555174
0.004870380473871518 0.0318067818202106 0.011098348085748617 0.015923813336748645 -0.007445310733563123 -0.022610772540415495 0.00568923516049109 -0.03752411749856708
-0.010219905115784161 0.05939755010226143 -0.008230738064500573 0.02408936146579066 0.004987852086289226 -0.0009073311318102861 -0.010072645702057154 -0.022588790324722767
-0.009175389042019883 -0.027278099622423377 -0.007619296646049676 0.03836014902090278 0.009090203253663874 0.014996188279148805 0.0062132599946485 -0.010757463217921552
0.024969840587519783 -0.049842693257970354 -0.003053554533689389 -0.02235569059158136 -0.01252329093678774 0.013924488216000392 0.024774615615543758 0.010648195456960574
0.02239926716692097 -0.015121325513835916 0.0047878803428594964 -0.04745709507654009 0.0016003379637843616 -0.0030280958615333466 -0.01597595434488267 0.011196049787173177
0.050165730111130506 0.019112060607423004 0.024886783327488754 -0.03059458335496017 -0.025175974654427297 -0.03950324295964831 0.016295575731031294 -0.010406446249334468
-0.015326450737604337 0.012716165512419414 0.0311025436209887 0.010036002719188196 0.026523318094842055 -0.03318429097559152 -0.01680398811768048 -0.032483814523095664
0.022363563203774334 -0.004937398594925548 -0.008448286056247593 0.004464538419839974 0.007487942486755508 -0.0030418506715091643 0.027071581406609403 -0.01437257263432251
-0.009184499964090707 -0.02735550919132842 0.010361637099791125 0.013014398844032254 -0.01744051692883876 -0.0007955417732118234 -0.030261558985617415 0.03576127953592136
0.0317394268119866 -0.019695678947070805 0.015632175983336483 -0.02564166992912405 0.0008767328418826567 0.00981828398017092 -0.028160634035654025 0.008251879156757628
-0.022528747477075315 0.02761502017479686 0.03875370341500903 -0.003947594148001565 0.008295767837841481 -0.015296522407383066 -0.0029236018914981132 -0.010056910328416775
-0.017855703556940175 0.023449750318410095 -0.003915685069822654 0.015443273215781329 0.02506590953383874 0.008534574970851727 -0.0002389702786142429 -0.0389099096435587
0.012082328617341 -0.023652132283139466 -0.022053157674857507 0.016593497399571798 0.012616489339909042 0.0029947343724117995 0.01842845224611622 0.028474101752623708
-0.01574395552868719 -0.034297253455743124 0.02780447477972527 -0.034814758757589714 -0.01600910089264372 0.006609966488441074 0.014621464215905778 0.02234911782272596
0.02500135474268404 0.016925228852389482 -0.022449529666278847 -0.027994882994415247 0.019892621516839244 -0.038943766742645686 -0.014279525621968053 0.03218027479967508
0.005754830190400503 0.0630960147295163 0.0037380136314089946 0.004876677561081728 -0.015053074587899229 -0.019773802640470316 0.015403396465850374 -0.0759438374351913
-0.01921418035250127 0.022103622914784474 0.014870518888812995 0.06058972495756074 -0.011972845595092584 0.008248600264830739 -0.008484137098919398 -0.002744413000529577
0.017490971474393872 -0.08088694988884915 -0.02403880682154533 0.005065753583389522 4.2933104681473996e-05 0.0559183715847391 0.015324027854086195 -0.00746046006866805
00000000: 1cfe caa9 c0ed 893f 9f9b c05f 75d4 83bf
00000010: 88da e180 cf41 84bf 480d c46b 5562 91bf
00000020: c4f6 6b59 fa1f abbf a1b6 ba64 210a 8fbf
00000030: 9b2c 421e 66d5 983f fdef fc77 4eac 6bbf
00000040: 11c4 e759 cf70 b43f ad44 ba19 98cf 81bf
00000050: 36ec a9db 63ca 82bf 5ad6 1f89 598e 81bf
00000060: f17a d08d 1902 983f 8656 05d7 35a2 573f
00000070: c1c6 442c dae1 5cbf 2b7a 532f 0997 a5bf
00000080: 6f0b 5f2f fa67 a33f 24d9 0bb8 7894 a0bf
00000090: cdbe be10 2f39 b03f a5a7 d591 e16f a0bf
000000a0: 99d3 ebf1 5337 97bf e8a5 cf36 caee 663f
000000b0: a73e 766a 74d0 a33f e395 e229 0f8b 673f
000000c0: bd6d 3683 d40a 923f 3c00 6401 1aee a0bf
000000d0: b6ae ac57 2849 9a3f eb6b c340 7402 97bf
000000e0: e1df 8e48 7b09 a73f 079d 1e91 6fe0 abbf
000000f0: 6440 dc9d 260a 84bf 7231 80ee 4bb8 4cbf
00000100: 629d c996 7490 963f 99a0 868e ff8d 77bf
00000110: 42ed 1b71 e030 923f d8cd 6a8b 821f 6f3f
00000120: aaaf b9b1 d32b 683f 91d0 b492 8097 9abf
00000130: e8f8 820c 8a70 aa3f 71cd 2bbf 7493 acbf
00000140: 8dd9 2aa9 0392 7a3f 9469 7856 cde1 8b3f
00000150: a92e f1a6 cd42 743f 7772 47a0 c312 8cbf
00000160: 3865 6c3d 7910 a23f bb36 ef55 ab14 903f
00000170: 0da5 5223 81e1 8bbf 771b dd72 fc68 a0bf
00000180: 54c6 da3e 55a4 a33f 86d9 b43b f12b acbf
00000190: 41ad f9e1 eedf 833f 8ccc c6ff 7f2b 82bf
000001a0: 15e3 400e 156f 8f3f 7f5d dc78 fbc2 8dbf
000001b0: 2e1f a2ec ba3d 8b3f ccf6 19b9 130f 733f
000001c0: 2a2f c552 59e0 713f 3ed1 977a 22c1 8a3f
000001d0: d0bf 7897 a59c 9e3f 5d50 7231 2722 b1bf
000001e0: b85d f5df f697 60bf fecd 6c50 83ec 78bf
000001f0: ab61 78b5 2f93 973f 1515 3d12 c34f 66bf
00000200: 9294 0890 88aa 763f 81c9 a4ad 831f 8a3f
00000210: f862 ea2f c6e8 5e3f 7847 03f4 69eb 5dbf
00000220: ee26 b381 7443 9d3f 739d fc70 a644 aebf
00000230: 312f 558b 4565 8cbf 1c80 3263 91c9 6abf
00000240: ce31 5c40 5b46 9b3f 4610 5067 c8aa a03f
00000250: 1a6d a81d e99c 793f 18ff 63b9 5c0d 47bf
00000260: 81df c841 4c29 713f f222 849d cba5 a1bf
00000270: 4723 8d1e e910 a33f d5f2 68a9 baef abbf
00000280: 9319 d31c bb8f 91bf a78f b016 d85d 873f
00000290: 3009 e94f 48a1 6f3f 6b4c 7d33 dde1 923f
000002a0: ff71 7490 ade4 953f f736 8359 11c7 9dbf
000002b0: f1d1 584a bb3d a93f bb36 9bf0 953a a8bf
000002c0: 3b9c 3d71 2f36 973f 0079 8b17 db26 a1bf
000002d0: 4dc0 789d ab89 97bf 6588 04d4 4bd2 923f
000002e0: 453a e7d9 72a0 29bf 9f80 dc27 7e7e 8c3f
000002f0: 1788 4d20 3dad a23f 7f6b ee27 b3b5 54bf
00000300: 52d1 2e4b 226c 9f3f 2014 ce33 6304 a5bf
00000310: 9ec9 580a ec39 8a3f f13d b8ea 32f2 a7bf
00000320: 3a63 7fe0 24bd 94bf 6d36 9ac5 93c0 71bf
00000330: 52b6 7212 5b31 49bf f6cc e4b1 81c0 873f
00000340: afb1 aa19 37db a03f 098a 0b59 6eec 973f
00000350: 84e2 9628 f022 943f 8097 3c70 0817 a5bf
00000360: 8ae7 5e34 9974 933f d94b 074b af7a a4bf
00000370: 11c9 4182 8efa 64bf 7fe7 209f 2c8f 483f
00000380: 4f70 abcd f6f2 733f 64e9 6a7f fa48 a03f
00000390: c416 8b10 bbba 863f a228 0906 554e 903f
000003a0: 6f54 bf61 f97e 7ebf 91bd 6442 4727 97bf
000003b0: ccca 416f 984d 773f 2d6a ef72 5c36 a3bf
000003c0: b093 ec71 2cee 84bf 1eb0 4d0e 5b69 ae3f
000003d0: 78c6 78f6 46db 80bf 0058 b5ae e1aa 983f
000003e0: 4f07 6859 246e 743f a493 d5c4 3ebb 4dbf
000003f0: d009 ff9e f7a0 84bf eeb4 cd0e 8421 97bf
00000400: 0a8e e8de 8bca 82bf 4cf2 1947 caee 9bbf
00000410: 97e6 9c5e 6935 7fbf cf67 0703 f1a3 a33f
00000420: 5901 826d e29d 823f 2ef0 c951 52b6 8e3f
00000430: ff2e a847 1373 793f a9d1 ab45 0208 86bf
00000440: b2c3 d6a2 b191 993f 279f f942 fb84 a9bf
00000450: 0bde 7a9b c403 69bf fb9f e1ff 68e4 96bf
00000460: ca28 18a8 cfa5 89bf 1d94 022c 7184 8c3f
00000470: 89e2 5b4f 845e 993f ed13 fe99 b8ce 853f
00000480: 5ec3 be5f d5ef 963f b4c9 6ef4 edf7 8ebf
00000490: 8dfc d5d7 749c 733f 0541 a2de 4b4c a8bf
000004a0: 7058 e3cd 4d38 5a3f 71d7 3896 60ce 68bf
000004b0: 6a11 bc25 005c 90bf 523f 715d f4ed 863f
000004c0: 071f 6a94 52af a93f 257c 12ad 1c92 933f
000004d0: 2810 fac1 eb7b 993f 8df6 c6bb 2f54 9fbf
000004e0: f58b 240f bbc7 99bf cafc 31e1 c439 a4bf
000004f0: 0f4b 5693 c9af 903f e7c0 7792 f94f 85bf
00000500: 9441 7465 7963 8fbf d008 0dd8 ee0a 8a3f
00000510: d4bf b25e 58d9 9f3f 9f1c b17b c18d 843f
00000520: f4eb 31bf ed28 9b3f 8354 f608 88fd a0bf
00000530: 0399 a18d 1035 91bf 3e53 0df2 b7a1 a0bf
00000540: a836 5452 79e6 963f 4f5e e1d7 3c39 74bf
00000550: 02fa 8cc2 554d 81bf 9244 1468 6849 723f
00000560: d0e3 8441 adab 7e3f bb0a e924 39eb 68bf
00000570: 0a68 2b13 a7b8 9b3f 1ff1 630b 5e6f 8dbf
00000580: 9f9b ceb7 52cf 82bf 3665 5e25 1503 9cbf
00000590: cf1f d063 7b38 853f 5639 4c0b 4ba7 8a3f
000005a0: c4ba 5647 eddb 91bf 7493 03f3 7c11 4abf
000005b0: 3843 add8 e2fc 9ebf 73c9 236c 4d4f a23f
000005c0: ff72 4d70 2640 a03f 40fd cca3 1a2b 94bf
000005d0: 0d7a 7492 e101 903f 15aa 0a57 cf41 9abf
000005e0: ab31 0d71 91ba 4c3f bc09 c8c4 9b1b 843f
000005f0: 18fc de28 24d6 9cbf 02dc de78 5ce6 803f
00000600: 1918 89a6 c611 97bf f8d4 1da2 1c47 9c3f
00000610: ac5e 8881 86d7 a33f cc7d 373c 5a2b 70bf
00000620: 854b 781c 5ffd 803f 69a1 db7b c853 8fbf
00000630: 2915 56d0 3cf3 67bf 24c2 aca7 b798 84bf
00000640: 74e8 4bfb c348 92bf b824 de1a 3603 983f
00000650: 85a9 0fb5 e409 70bf c762 3d0b b9a0 8f3f
00000660: aef2 c4b6 e0aa 993f b39e 1443 937a 813f
00000670: 4bf7 0e10 8352 2fbf d49c d1ea ffeb a3bf
00000680: 6704 2bb2 9ebe 883f 2508 8cba 4338 98bf
00000690: c4bb f25b 1a95 96bf 3633 a1c2 e2fd 903f
000006a0: 1989 d788 acd6 893f cb26 12c6 6988 683f
000006b0: ff13 da7e e8de 923f 6ef2 3d9f 5028 9d3f
000006c0: 53eb 6bf8 2e1f 90bf 86bd dedb 688f a1bf
000006d0: c50c 72b7 c678 9c3f 585f 9074 3dd3 a1bf
000006e0: bccd 1693 b064 90bf b002 545e 0d13 7b3f
000006f0: 27fe 03b5 dbf1 8d3f fc7d 92e8 afe2 963f
00000700: 5bef e683 f499 993f 69e3 97e1 d854 913f
00000710: 14b4 e86e 02fd 96bf 495a aacb b0aa 9cbf
00000720: e2d8 623b bb5e 943f d4de 15f9 6ff0 a3bf
00000730: 63d5 637c 953e 8dbf 1b8a aed7 ee79 a03f
00000740: 308c 6377 6092 773f cf6d c577 0f27 b03f
00000750: c49e 90c9 2e9f 6e3f bb2d 352a 91f9 733f
00000760: a065 7978 25d4 8ebf f62d a26e 953f 94bf
00000770: e191 8be0 d08b 8f3f 51ec 1d2a 0e71 b3bf
00000780: 8e0a efd0 e1ac 93bf 5420 2b06 55a2 963f
00000790: 1080 6a42 6f74 8e3f ec2c 55ce 9d05 af3f
000007a0: b9f7 2a22 3885 88bf f275 0063 a4e4 803f
000007b0: cd42 ff9a 2160 81bf 7f0f b082 737b 66bf
000007c0: 0ec7 d439 27e9 913f d01f 72d4 01b5 b4bf
000007d0: b999 8804 a19d 98bf ce27 86df d3bf 743f
000007e0: 22ac 823e 6282 063f 7e70 6732 55a1 ac3f
000007f0: d872 cf33 3462 8f3f e5f1 2000 dc8e 7ebf
